models/G_FMNIST.pt (torch, 461583 bytes, 8 tensors)

dense0.weight f4 [32, 100]
000000 2e 61 89 bd a2 27 42 3c 2f f1 3a 3d 32 d0 ef bc
       -0.06707989 0.0118502695 0.045640167 -0.02927408
000010 1a 6d c7 3c ec 5c 9e bd 31 3b e9 3a dd 92 59 bd
       0.024344016 -0.07732567 0.001779413 -0.053118575
000020 55 41 e2 bd f1 1b 10 3d 13 70 9a bd 11 c1 b8 bb
       -0.11047617 0.035182897 -0.07540908 -0.0056382497
000030 4d 7d df bb ff bc cb 3a c5 24 30 bc ad c6 04 bc
       -0.006820357 0.0015543996 -0.010750954 -0.008104009
000040 c4 e7 10 bd 7c 79 62 bd a9 b9 2b bc ce 22 2c 3e
       -0.03537728 -0.055291638 -0.010481277 0.16810152
000050 d4 e8 75 39 31 96 82 bd 30 98 c4 bc 30 6c 50 3d
       0.00023451756 -0.06376303 -0.02399835 0.050884426
000060 8f 49 34 bd 62 ba 86 ba b5 fd 96 3d ee ec 9d 3c
       -0.044015463 -0.0010278935 0.073726095 0.019278016
000070 b0 0b 4b 3c 2d 47 5e bd d6 bf 3b 3d 54 c2 07 3e
       0.012392923 -0.054267097 0.045837246 0.13257724
000080 b5 e1 00 3c 73 f5 9f bd 9b 7d 91 bd 55 bd 7b 3b
       0.007866313 -0.078104876 -0.071040355 0.0038412411
000090 86 7f 33 bd eb b9 bd 3a 10 cc 5c 3c 81 3a 6b bd
       -0.043822788 0.0014474964 0.013476387 -0.05742884
0000a0 7c ce ff bc 87 72 5b 3d f5 34 b0 bd 1f 77 23 ba
       -0.03122639 0.05357602 -0.08603851 -0.0006235707
0000b0 9e 08 c7 bd bb 1a 42 bd 21 50 12 3c 01 fe b3 3c
       -0.097184405 -0.047388773 0.008930237 0.021971704
0000c0 eb b5 8f bd bb 8e c4 3d 17 e3 26 bc 3d 83 a3 bd
       -0.0701712 0.09597536 -0.010185978 -0.07984016
0000d0 72 0d d2 3d 77 bb 49 3d 6b 58 79 3d 3e ab ee 3d
       0.10256471 0.049251046 0.060875338 0.116537556
0000e0 05 c4 6d 3d f1 ee 3f 3d 55 1a 85 3d 03 93 d7 bc
       0.058048267 0.04685873 0.06499163 -0.026315218
0000f0 47 d1 4f b9 d4 f0 2b 3c 4e 5c 9d bd 99 cd 93 3d
       -0.0001981902 0.01049443 -0.07683621 0.07216949
000100 3a 7e 63 bd ad c0 6c 3d 54 d9 1e 3e 32 f2 a7 bc
       -0.0555403 0.057800937 0.15512592 -0.02050123
000110 e7 a2 ee 3d 44 15 0a 3d de c1 2e 3d ef 8f 1d 3d
       0.11652165 0.033711687 0.042665355 0.038467344
000120 7c a8 74 3d 0f 4f 86 3d de 5b 6c 3a 50 af 07 3d
       0.05973099 0.06558048 0.0009016375 0.033126175
000130 a6 d9 95 3b 59 26 25 3d e3 65 8c bc c5 d8 37 bd
       0.004573065 0.040319774 -0.017138427 -0.044884462
000140 3f 2d 5d 3d 08 89 84 3d 75 7e 3a 3d ac d7 9e 3b
       0.05399823 0.06471449 0.045530755 0.0048474874
000150 30 a7 8a 3c cb e1 ea 3c ba 39 a5 bd 9b 3a 52 bc
       0.016925424 0.02867212 -0.08067651 -0.012831355
000160 29 cd 39 3d 00 a9 2b bd 42 04 38 bd 07 8f 02 bd
       0.04536167 -0.041909218 -0.044925936 -0.031874683
000170 76 8f e5 bc 29 e3 89 3d 82 cb ac 3b 01 ad 93 3d
       -0.028022509 0.067327805 0.0052732835 0.07210732
000180 f6 7f 1e 3d b2 18 0d 3e 24 c4 a4 3b 61 a4 fc 3b
       0.03869625 0.13778952 0.0050282646 0.007710025
000190 7e 08 da 3c 34 b7 36 bd 50 00 84 bd c8 0a bb 3d
       0.026615378 -0.04460831 -0.06445372 0.09132916
0001a0 d3 0e 2f bd 9a e9 1b bd 58 72 fd bd a8 82 f0 3d
       -0.042738747 -0.038064577 -0.12375325 0.11743671
0001b0 71 79 93 3d 7d c2 95 bd 44 dd e0 bd 54 0b 3a 3e
       0.072008975 -0.07312486 -0.10979703 0.18168384
0001c0 8b d3 63 bd 89 a6 42 3d 42 ef d7 3c 8b 29 11 bd
       -0.055621665 0.0475221 0.026359204 -0.03544001
0001d0 15 26 94 bd 85 99 b0 bd 55 85 f6 bd b2 23 8c 3c
       -0.07233826 -0.086230315 -0.1203715 0.017106865
0001e0 6b 72 e2 bd d9 18 85 3b c2 9a 15 3e 90 4b 72 3d
       -0.1105698 0.0040618 0.14609817 0.059154093
0001f0 6a 5c a5 3d 59 e6 d4 bc fe a7 d2 3d 2b 8d 7a 3d
       0.08074267 -0.025988745 0.10285948 0.061169785
000200 dd 5f 23 be 81 d3 19 3d 1d ab a7 3d 3b dd f2 3d
       -0.15954538 0.03755522 0.08186934 0.118586026
000210 f7 84 1d bd 57 6f de bd 66 d2 37 be e7 8f b1 3d
       -0.038456883 -0.1086108 -0.17951354 0.08670025
000220 aa 86 8a be 1e 48 66 bd 42 9b 80 bd 2d 1a b7 3d
       -0.27055866 -0.05622112 -0.06279613 0.089405395
000230 e2 ad 26 bc ac 39 a8 bb 80 66 7a 3c 6d 91 39 be
       -0.010173293 -0.005133828 0.015283227 -0.18121882
000240 a3 77 06 bd 1d 53 bb 3c a4 aa 44 3c e9 10 0e 3d
       -0.03282894 0.02286678 0.0120035745 0.034684096
000250 da bb bc bd ac 85 27 be 48 1b f5 3c c9 98 d8 bd
       -0.09215517 -0.16359586 0.029920235 -0.105760165
000260 6d 19 ef bd 11 90 1d bc 7e c2 bf bc 4c 73 af bd
       -0.116747715 -0.009616868 -0.02340817 -0.08566913
000270 f8 de 80 3d a5 02 35 3e 75 fc 51 3d 98 a9 66 3e
       0.06292528 0.1767679 0.051266152 0.22525632
000280 49 19 b3 3d fb ee 8a 3e 3c bf 71 3c 8b 54 18 be
       0.08745057 0.27135453 0.0147550665 -0.14876
000290 a0 a0 5f bd 69 56 2a bb 47 d9 53 be c0 2e 54 3d
       -0.054596543 -0.0025991446 -0.20688353 0.051802397
0002a0 0c a9 33 3d 33 71 db 3c e4 89 83 3d d8 73 c7 bc
       0.043862388 0.026787376 0.06422785 -0.02434723
0002b0 b1 27 96 3c 28 da 1c 3e 2b da 2a 3e 1a 87 26 3e
       0.018329473 0.15317595 0.16684787 0.16262475
0002c0 ff fc 4d 3d 08 6c 0f be a2 4c 1d bd 33 97 12 be
       0.050290104 -0.14006054 -0.03840316 -0.1431549
0002d0 d0 d4 3b 3c 4d 8a e0 3d 36 59 87 bd 7d b9 cb bc
       0.011464313 0.10963879 -0.066088125 -0.024868721
0002e0 43 63 cf bd 29 bd f7 3c 37 9b 0b be d5 13 7f bd
       -0.101263545 0.030241566 -0.13633429 -0.062274773
0002f0 18 d5 20 3d c2 ec 5a bd f8 a5 30 3e b2 d7 5b bd
       0.039265722 -0.053448446 0.17250812 -0.0536725
000300 5a 7d 52 3d 59 c6 62 bd 40 94 08 3e 82 e3 72 3d
       0.051389076 -0.05536494 0.13337803 0.059299
000310 f3 fa 08 be 1e 42 02 3c d8 6a 2c 3e 16 6f b5 bd
       -0.1337698 0.007950334 0.16837633 -0.088590786
000320 62 c2 16 3d b3 a0 e8 3b 69 0f 69 bd ac 5e a8 bc
       0.03680647 0.007099235 -0.056899462 -0.020552956
000330 9a 06 97 3d df 4f 5b 3d 55 f2 4d 3d a2 6a 2f 3d
       0.07374306 0.053542968 0.050279934 0.042826302
000340 6e ad 1b 3d 7f 46 d5 3d c7 05 93 bd 6e 8b 13 be
       0.038007192 0.10413837 -0.07178836 -0.14408657
000350 72 df 8d 3d 66 a3 f0 bd 94 79 01 be 5e 08 c2 bd
       0.069273844 -0.11749916 -0.12644035 -0.09474252
000360 a9 7d cd 3d a8 95 ab 3b 76 0d a5 bc fc 58 9e 3d
       0.100337334 0.0052363463 -0.02014802 0.07731816
000370 21 a4 9a 3d 80 c2 3d 3b 17 0e bd bd 93 f9 64 3c
       0.07550836 0.0028955042 -0.09231203 0.013975519
000380 79 7c 74 3d 75 b0 d5 bd 12 44 0d 3d 21 32 bb be
       0.05968902 -0.10434047 0.034488745 -0.36561683
000390 59 b5 4a 3e 1d 0c 4f 3c c4 92 d0 3d fa ea ed bc
       0.19795741 0.012637165 0.10184243 -0.02904271
0003a0 70 1d 81 bd 35 90 82 3e 4d a9 1e 3c f2 2a 1b 3e
       -0.06304443 0.25500646 0.009683919 0.15153101
0003b0 d1 ad 09 be 4c 4f 0c 3e 69 18 cd bb 2b 30 41 3d
       -0.13445212 0.13702124 -0.0062590134 0.047165077
0003c0 21 0e 23 3c ad c4 b0 bd 46 33 09 3d 69 7b 51 3e
       0.009952099 -0.08631263 0.033496164 0.20457233
0003d0 62 fd cd bd bf 5d 1d 3d 5b 63 10 3e 08 79 29 3d
       -0.100580946 0.03841948 0.14100401 0.04137519
0003e0 8f bf 09 3e 2e bc e7 bc f1 7f f4 bc ae fb 58 bd
       0.1345198 -0.028287973 -0.029846163 -0.052974395
0003f0 fa 9a b6 bd 29 a7 ff ba c7 bc 61 3d 64 78 27 be
       -0.08916278 -0.0019504774 0.055111673 -0.16354519

dense0.bias f4 [32]
000000 ba 04 b6 be 02 1b b3 be a5 dd b6 be 20 d5 a8 be
       -0.3555048 -0.34981543 -0.35715976 -0.329751
000010 16 31 cd be 85 c1 c5 be d5 95 c1 be d6 2d 37 be
       -0.40076512 -0.38624206 -0.37809625 -0.17888579
000020 4c 5e ad be 79 c1 3b be 80 0d 56 be 02 7f 8f be
       -0.33861005 -0.18335523 -0.20903587 -0.28026587
000030 b5 97 ab be cd da cd be 16 cd 97 be 5c f8 a3 be
       -0.3351418 -0.40205994 -0.29648656 -0.3202542
000040 14 fa c3 be 0c 11 88 be 4d a2 eb be b8 3f cf be
       -0.38276732 -0.26575506 -0.46022263 -0.404783
000050 e9 2b d7 be 0a dd 80 be d5 d7 2c be df 31 93 be
       -0.42025688 -0.2516864 -0.16879208 -0.28748986
000060 31 62 b0 be 40 10 b4 be b5 9e 81 be a1 3f d1 be
       -0.34449914 -0.35168648 -0.25316396 -0.40868858
000070 23 6a 73 be 25 d0 cd be a7 c4 ba be 1b bf 99 be
       -0.23770957 -0.40197864 -0.3647816 -0.30028614

dense1.weight f4 [64, 32]
000000 a1 b2 8f bc eb 81 4d ba 08 87 40 3a 61 ae 4e 3c
       -0.017541232 -0.00078394887 0.000734434 0.012614817
000010 2a 02 9c bc 6e 7f bd bc 8f e5 2a bc 8a 1c a1 bd
       -0.019044 -0.023132052 -0.010430708 -0.078667715
000020 99 6d 2d 3c 12 5a 97 3c 38 37 f6 bc 1f 60 95 3d
       0.010585212 0.018475566 -0.030055627 0.07293724
000030 21 db 03 bd 02 19 b3 3a c3 5d 3e bd 92 12 95 3b
       -0.0321914 0.0013664069 -0.046476137 0.004549333
000040 d3 1d 54 3d a8 f4 a1 bd 36 8a 2b 3d c1 4b d7 bc
       0.051786255 -0.079079926 0.041879855 -0.02628124
000050 a3 c1 47 bd 82 b7 1b 3c 19 28 7d 3d 47 cb eb 3b
       -0.04876865 0.009504201 0.06180582 0.0071958634
000060 6f f7 30 3d 86 d1 d8 3c b6 c7 e4 3c 95 ff 4f 3d
       0.04320472 0.026467096 0.02792726 0.05078085
000070 69 3a 74 bc 75 80 46 3d ec 69 3d 3c ef 49 02 3c
       -0.014906504 0.04846235 0.011560898 0.007952197
000080 f6 51 c9 bd 34 fa e9 bd db bc 9a bd 5d 60 81 3d
       -0.09830086 -0.114246756 -0.075555526 0.06317208
000090 dc 7f 84 3e 29 06 bb bd 96 84 0c be 05 90 e8 bc
       0.258788 -0.09132034 -0.13722453 -0.028388986
0000a0 90 c8 18 be 04 46 82 3c 1a b3 ee 3c c4 d1 11 bd
       -0.14920259 0.015902527 0.029138137 -0.03560044
0000b0 08 2c 5d 3d 11 a4 e2 bd 95 37 23 3e 88 24 70 bd
       0.05399707 -0.110664494 0.15939172 -0.05862859
0000c0 d0 6f 21 be cd 88 0d bd 24 3e dc bd 06 f9 62 be
       -0.1576531 -0.03455429 -0.1075404 -0.22165307
0000d0 a4 a3 1b be 81 94 14 be 2f e1 a8 bd 6c c6 79 bc
       -0.15199143 -0.14509775 -0.08246075 -0.015245061
0000e0 72 b5 03 be e0 19 45 be d8 42 3f be e8 8d 82 be
       -0.12862185 -0.19248152 -0.18677843 -0.2549889
0000f0 fc 53 8c bd b8 6d 46 be 79 41 ca 3b 87 b5 51 bd
       -0.06851956 -0.19377792 0.0061723557 -0.05119851
000100 70 c7 33 3e 5f 15 60 3e 9d 4b 23 be 8f 4b 88 bd
       0.17556548 0.21883152 -0.15946813 -0.06655037
000110 24 3d 34 be dc 93 72 be fa b7 08 be b7 79 c1 bd
       -0.17601448 -0.23689216 -0.13351431 -0.094470434
000120 ff 38 53 bd 7c 39 e1 bd 08 2c 15 3d bd d4 6c bd
       -0.051568028 -0.109972924 0.036418945 -0.05782007
000130 db 4b 94 bd 5b 10 8e be 1b 2f 86 bd e1 fa e1 bd
       -0.07241031 -0.27746853 -0.065519534 -0.110341795
000140 a0 51 59 be fc a6 1a bd b3 68 4d be 81 eb 5f be
       -0.21222544 -0.037756905 -0.20059471 -0.21867181
000150 61 72 41 be 9a 64 e5 bc e5 fb 75 3c 81 cc 4d bd
       -0.18891288 -0.028002072 0.01501367 -0.05024386
000160 eb 24 bf 3c bb 50 a0 be 7d 33 a1 bd a7 0f 88 be
       0.023333034 -0.31311592 -0.07871149 -0.26574442
000170 00 a2 19 be 8b 9e 50 bd db 1f 19 be d6 7d 11 be
       -0.15003204 -0.05093245 -0.14953558 -0.14208159
000180 70 ba 9f bc 4d 55 ec bc 82 04 60 bc a0 0a 64 3c
       -0.01949808 -0.028849268 -0.01367295 0.013918549
000190 7d 0d 5d bc 82 1b d1 3c fa 7a a6 bc 4a 9c 85 bd
       -0.013491985 0.025525812 -0.020322312 -0.065239504
0001a0 e1 bb 15 bd aa 5b bc bd 0d b2 2b bd de 9b 03 bd
       -0.03655613 -0.09197171 -0.04191785 -0.03213107
0001b0 55 35 84 3d 79 4f d6 3a 2b c1 f5 3c 04 ff 56 bd
       0.06455485 0.0016350589 0.029999336 -0.052489296
0001c0 df 6f 11 3c 2b a9 da bd 79 60 b3 bc bb b8 a6 3d
       0.00887677 -0.106767975 -0.021896588 0.08140703
0001d0 f4 01 02 3d 8c 88 a1 3d 9a ed 51 bc 22 c8 8c 3d
       0.031740144 0.078873724 -0.012812996 0.0687411
0001e0 98 8e 14 3c ca ab ae 3c ce 41 96 bc 55 4d 16 bd
       0.0090672 0.02132215 -0.018341925 -0.036694843
0001f0 b8 91 bf 3c f2 0d 9e bc 9c d4 04 3c ca 1f f9 bb
       0.023384914 -0.019293759 0.008107331 -0.0076026665
000200 97 40 45 bd 05 89 90 bd 68 17 60 3c e9 3f 3f bc
       -0.0481573 -0.070573844 0.0136774555 -0.011672952
000210 2a e3 6a bc e0 00 91 3e c2 51 59 bd 54 5d 58 3d
       -0.014336387 0.2832098 -0.053056486 0.05282338
000220 03 de d0 bd 2c e1 14 3d f0 4c 13 be 56 9f a2 bd
       -0.101985954 0.036347553 -0.14384818 -0.07940547
000230 e8 ee 87 bd 06 44 01 be 4b c3 a0 bd 55 15 54 bc
       -0.066373646 -0.12623605 -0.07849749 -0.012944539
000240 b0 72 ae bd 35 48 15 3d 36 4c a2 be 26 83 89 bd
       -0.08517969 0.036445815 -0.3169877 -0.06714468
000250 71 c0 1e 3d f3 2c d9 bc b3 f6 bc bb 71 3f ef bd
       0.038757745 -0.026510691 -0.0057667135 -0.11682022
000260 61 dd 9b bd 8a 66 8e 3e 4c a9 2d 3d 1b ab 15 be
       -0.07610584 0.27812606 0.042397782 -0.14616053
000270 43 81 20 be 89 9f dc bd 95 63 dc bd 7d 8b 9f bc
       -0.1567431 -0.107726164 -0.10761181 -0.019475693
000280 4f 86 46 bd c4 2b 88 bd c5 0d 18 3d 52 7c 8e bd
       -0.04846793 -0.06648973 0.037122507 -0.06957306
000290 f7 8a cd 3a 2a de 9f 3c e3 cc 5b bd 24 3b 66 bd
       0.0015681674 0.019515116 -0.053662192 -0.056208745
0002a0 4f c0 78 3d 37 38 0a 3d 9d a5 8f bc e7 ea d7 3d
       0.060730275 0.033745017 -0.017535025 0.10542851
0002b0 4b f0 d6 3c d8 d3 47 3d 6f cc d0 3d 23 4e ec bd
       0.026237627 0.048786014 0.101952426 -0.11538341
0002c0 ed b8 9d bb 61 bc e5 bd be 05 bf 3c 90 d4 66 3b
       -0.0048133046 -0.11217571 0.023318168 0.0035221912
0002d0 4e 84 11 bc 11 24 05 bd 29 72 10 be ed 64 4c bd
       -0.008881642 -0.0325051 -0.14106049 -0.049900938
0002e0 57 5e a4 bc a5 9d de bd 2d 97 c7 bd a6 54 d4 bd
       -0.020064516 -0.10869912 -0.09745631 -0.10367708
0002f0 07 db cb 3d 50 f1 82 bd 10 8d 64 bd 9d 5a a8 bb
       0.099538855 -0.06393683 -0.05579859 -0.005137755
000300 05 38 1c bc e1 da ec bd 64 e5 57 3d 4f fb 86 bb
       -0.0095348405 -0.11565185 0.052709 -0.004119314
000310 1c 32 2d bd e8 4f 42 bd 3c 69 7d bd fe d1 a8 bd
       -0.042284116 -0.047439486 -0.061867937 -0.08243178
000320 cf 27 d3 3d f2 12 2d 3d 4b 45 92 bd 29 bb 2f bd
       0.10310327 0.042254396 -0.07142123 -0.0429031
000330 be d9 10 3c f1 ee 25 3c 46 fe cd bd 60 60 72 3d
       0.008840976 0.010127769 -0.100582644 0.05917394
000340 b8 bb a2 3e 95 58 9c bd 59 b6 cc bd ed 10 86 3d
       0.31783843 -0.07634083 -0.099957176 0.06546197
000350 28 51 1f bc c6 31 b7 3d 04 36 06 bd ec dc ce bd
       -0.009723939 0.089450404 -0.032766357 -0.10100731
000360 37 b1 97 bc 4d a5 b0 bd fe dc 24 be 5f 53 a0 3e
       -0.01851712 -0.086252786 -0.16099927 0.31313607
000370 b0 1a 35 3c 4a 35 d4 bb b5 71 22 3e 61 35 75 3c
       0.011053726 -0.006476079 0.15863688 0.01496634
000380 11 21 8a 3d 77 da 83 bc 91 1d 0f bc 5d 6d 5a 3d
       0.06744588 -0.016095383 -0.0087350765 0.053326953
000390 21 4e 90 3d 42 7e 4f 3c 76 35 76 3c b8 f1 1a bd
       0.07046152 0.01266438 0.0150273945 -0.037828177
0003a0 b8 7a 9f 3d 95 12 a2 3c 06 8c 8e bd 10 ec e2 3b
       0.077870786 0.019784251 -0.06960301 0.0069251135
0003b0 67 a3 0a bd d8 36 82 3c 5e ed 44 3d 71 99 8d 3d
       -0.03384724 0.015895292 0.048077933 0.06914032
0003c0 66 f3 95 bc 1b 34 ef bc 0b fc 1b 3d 5b 2c 96 3d
       -0.018304538 -0.02919965 0.038082164 0.07332679
0003d0 2c 42 44 3b fc 31 31 3c 38 17 78 3b dd 95 5f 3c
       0.0029946668 0.01081514 0.0037855636 0.01364657
0003e0 25 d5 1a 3d 4b c7 33 bd 04 c2 e2 b9 1f 32 3d bd
       0.037800927 -0.043891232 -0.00043250632 -0.046190377
0003f0 92 4a 4e 3d 57 db 14 3e 52 2b 7d bc 71 e1 e3 3b
       0.050364085 0.14536797 -0.015452223 0.006954365

dense1.bias f4 [64]
000000 3c c3 1f be 96 14 c1 bd ab fc 13 be 73 d7 8e bd
       -0.1560182 -0.094277546 -0.14451854 -0.069746874
000010 d3 6b b0 bd 70 21 4f bd 04 a1 a5 bd be 45 03 be
       -0.08614316 -0.050568998 -0.08087352 -0.12819573
000020 0b 1c a0 bd 6d fe a7 bd 8a 51 bc bd 42 6b af bd
       -0.07817849 -0.08202825 -0.0919524 -0.0856538
000030 ab 92 c4 bd 96 de 26 be f5 2f 34 be 86 41 2a bd
       -0.09598287 -0.16295847 -0.17596419 -0.041566394
000040 0f 1c 0f be 51 2f d0 bd e7 42 11 be ed 46 c6 bd
       -0.13975547 -0.10165275 -0.14185677 -0.09681497
000050 8b 41 f4 bd 9c e2 bc bd 6c 1d ca bd d6 81 54 bc
       -0.11926564 -0.0922291 -0.09868893 -0.012970408
000060 3b 9b cc bd 76 e8 d6 bd ff 1d 81 bd 81 50 27 be
       -0.09990545 -0.10493557 -0.063045494 -0.16339304
000070 5a a2 fc bd ea 04 28 bd 54 db 28 be f6 a6 10 be
       -0.123356536 -0.04102031 -0.16489917 -0.1412619
000080 8a 12 46 be 48 c0 e3 bd 4a 65 b3 bd 1f fa 81 bd
       -0.1934301 -0.11120659 -0.08759554 -0.06346535
000090 a4 97 25 be 19 21 ca bd 61 37 1d be 85 7e aa bd
       -0.16171128 -0.09869594 -0.15353157 -0.08324913
0000a0 81 70 20 3d 19 7a 16 be 0a 27 24 be 17 bb 86 bd
       0.039169792 -0.14695014 -0.16030517 -0.06578653
0000b0 e4 9f 6d bd 90 13 bc bd 76 89 34 be 55 b3 ec bd
       -0.05801381 -0.09183419 -0.17630562 -0.11557642
0000c0 ac 07 f8 bd 1b 79 de bd 74 3b a6 bd 8b 26 03 be
       -0.12110838 -0.10862943 -0.081168085 -0.12807672
0000d0 51 1f 11 bd c2 d0 47 3c 8b 0f 9f bd 17 cd 2f be
       -0.035430256 0.012195768 -0.077666365 -0.1716808
0000e0 20 7c bf bd 36 ae bb bd b9 2a 92 bc a1 d1 b6 bd
       -0.09349847 -0.091640875 -0.017842637 -0.08926702
0000f0 4e 93 cb bd d1 1f e1 bd 93 63 65 bd 2e ef 40 bd
       -0.099402055 -0.109923966 -0.056003164 -0.0471031

dense2.weight f4 [128, 64]
000000 ff 27 f2 bd 58 1e 31 be e2 f9 b9 bd 15 68 b4 3d
       -0.11824035 -0.17296731 -0.090808645 0.088089146
000010 5e cb 86 3e 6b 7b 57 be 30 f6 67 bd e8 2c fd 3d
       0.26327032 -0.21043174 -0.056631267 0.12362081
000020 49 e0 52 be 34 26 8b 3e e3 a8 6f 3b 16 81 70 3d
       -0.2059337 0.27177584 0.003656917 0.058716856
000030 e3 5f 01 bf 43 5c 5a be 70 8d 10 bd 9c 36 22 3e
       -0.50536937 -0.21324258 -0.035291135 0.15841144
000040 ce 1c bb bd fd 32 ad 3d f1 5c 7c 3e 5d 50 47 bc
       -0.091363534 0.08456991 0.2464483 -0.012165156
000050 0f ef 42 3e 9e 0e 65 3d 8b 71 cd be ad 94 08 be
       0.19036506 0.055922143 -0.4012569 -0.13337965
000060 3e e2 93 bd a6 a3 f2 bb 4b 6a 9d 3e 9b cf 79 3d
       -0.07220887 -0.0074047623 0.30745158 0.060989004
000070 f4 9d 8a 3e d9 6a 3a bd 4c 5c 31 3e de 08 bb 3e
       0.27073634 -0.045512054 0.17320365 0.36530203
000080 fb 21 0e 3d fd dc cc 3d ce 69 b3 3c 17 0b b9 3e
       0.034700375 0.10003088 0.021901038 0.36141273
000090 11 e5 0b bd 13 30 6e 3c fe 56 d5 3e 1e 43 43 be
       -0.034154 0.014537829 0.41667932 -0.19068572
0000a0 48 99 1d 3d 64 6a be be e0 66 9a bc a5 d2 ce 3e
       0.03847626 -0.37190545 -0.018847883 0.40395084
0000b0 a5 d5 aa 3c 59 f5 91 3e 16 dd ac be bd 2b 6b 3e
       0.020853827 0.28507498 -0.33762425 0.22965904
0000c0 e6 f8 6b 3e d3 66 0e 3e 75 ca ab be af 3c 58 be
       0.23044166 0.13906412 -0.335529 -0.21116899
0000d0 cd 48 b1 bd 7e 36 8b be 08 ac 3a be 7e 82 c6 3b
       -0.08656464 -0.27190012 -0.18229687 0.0060580363
0000e0 d1 38 eb 3c 4c fa 4e 3e b2 49 be bc cb 88 9c 3e
       0.028713616 0.20212668 -0.0232285 0.30573115
0000f0 95 26 c9 bd 20 c0 48 3e 5e bc e1 3e 49 11 89 be
       -0.09821812 0.1960454 0.44089025 -0.26771
000100 5d d1 ea be 09 d1 c5 3e 87 68 bf 3c b3 c3 66 be
       -0.45862857 0.38636044 0.023365272 -0.22535591
000110 d8 fd 88 be 26 cd 8d 3e 53 ed a2 3d 90 9d 5a be
       -0.26756167 0.27695578 0.07955422 -0.21349168
000120 46 eb ad 3d 9a 68 75 3c 7f 2e ea 3b 62 72 e0 bd
       0.084921405 0.014978552 0.007146656 -0.10959317
000130 2b 8d 02 be d5 ff 4e be f0 cd 37 be 2b 3f 07 be
       -0.12749164 -0.2021478 -0.17949653 -0.1320769
000140 e6 fa f7 be 2a 1a 3d be bf 3b 72 be e2 f2 e0 bd
       -0.48433608 -0.18467012 -0.23655604 -0.10983826
000150 0c 3b 7d be 80 ee 84 3e d4 13 47 3d 70 6e 94 3e
       -0.24729556 0.2596321 0.048602894 0.28990507
000160 7b ea de 3e 44 ec 90 3e 48 8d c2 be 17 25 d0 3d
       0.4353827 0.28305256 -0.37998414 0.10163324
000170 05 56 1f bd 31 98 08 3e 58 96 13 bd 91 1b 46 be
       -0.038900394 0.13339306 -0.03603205 -0.19346453
000180 7d 0d d4 bd da 41 00 be 3a 3e a1 3e c2 80 b9 be
       -0.10354135 -0.1252512 0.31492788 -0.36231047
000190 77 24 31 3d e7 36 4c 3d a6 82 56 3e ac e8 5d bb
       0.043247666 0.049857046 0.20948276 -0.0033860607
0001a0 cb 86 4e 3e 27 4f 0e bd 58 59 c5 bd 94 73 db bb
       0.20168607 -0.034743454 -0.096361816 -0.0066971276
0001b0 2d 59 9f bd bc a3 b2 3e d9 c4 bc 3e 8a 4e b5 3d
       -0.07780681 0.34890544 0.36868933 0.08852871
0001c0 75 32 95 3e 49 d3 ce bb ad 21 2c 3e 61 b3 59 be
       0.29140058 -0.0063118082 0.16809721 -0.21259834
0001d0 ac fe 97 3d 88 73 21 3e d8 7f 64 3d 4e af 39 3e
       0.07421622 0.15766728 0.055785984 0.1813328
0001e0 d9 96 7a 3d 09 02 a7 be a2 a6 50 bd d0 b8 90 bb
       0.061179016 -0.3261874 -0.050940163 -0.0044165626
0001f0 d8 fc d1 be 59 c9 fb bd f8 94 dc bd 1d 47 ea be
       -0.41013217 -0.122942634 -0.10770601 -0.4575738
000200 95 02 26 3e f6 45 98 3d 22 97 b3 bd 3a 63 96 be
       0.16211922 0.07435219 -0.08769061 -0.2937258
000210 7e 05 68 be be 70 da bc d5 7a 5e 3e 0f ae a7 3e
       -0.22658345 -0.026665088 0.21726544 0.32749984
000220 2a fa 9e 3d 93 e5 1e be 05 0f fc be d7 b3 29 be
       0.07762559 -0.15517263 -0.4923021 -0.1657251
000230 7e 6d ac be 62 e5 60 3e 4d 6a 18 3f fc 38 33 3e
       -0.33677286 0.21962503 0.595372 0.17502207
000240 d7 2f 30 be e9 d0 16 3e 94 9f 3f be c7 8c 30 3e
       -0.1720575 0.1472813 -0.18713218 0.17241202
000250 e5 42 30 3d 7e 0d 0c 3e 66 dc 5e 3e 6f 84 93 3c
       0.043032546 0.13677022 0.21763763 0.018007485
000260 82 d7 1c be 4d e9 de be d5 15 f6 be 07 5b 30 3e
       -0.15316585 -0.4353737 -0.48063532 0.17222224
000270 10 40 e8 3b 12 a1 40 be d7 29 2d 3d 88 1a 2e 3e
       0.007087715 -0.18811443 0.04227623 0.17002308
000280 52 2d 75 3d 45 5e 2c be f8 9c 77 3e 52 20 8d 3e
       0.059857674 -0.16832836 0.24180973 0.2756372
000290 fb f6 0b bd cc 11 f1 bc 1a 34 6a bd c8 ff 42 3d
       -0.034171086 -0.029427432 -0.057178594 0.047607213
0002a0 0a 0e 05 3e 62 58 35 3e 4f a3 72 be 97 8a e0 bd
       0.12993637 0.17709497 -0.2369511 -0.10963934
0002b0 c3 2d c6 be d2 dc b3 3c 61 ab a2 3e 51 03 ce 3d
       -0.38706788 0.021955881 0.31771377 0.10059226
0002c0 f1 73 24 3e 88 01 14 3e cd 83 2d 3e 9b 2b 9c 3e
       0.16059853 0.14453709 0.1694481 0.30502018
0002d0 6d d7 e5 bc ef 70 df be 7d 5e 32 be 2a 46 a3 3e
       -0.028056825 -0.4364085 -0.17418857 0.31889468
0002e0 31 35 51 be 59 a8 15 bd 17 27 0b bf f9 a8 67 3c
       -0.20430447 -0.036537502 -0.5435652 0.014139407
0002f0 29 fe 82 bd db 32 b7 bd 08 29 b0 3d 70 a9 9f 3e
       -0.063961335 -0.08945247 0.08601576 0.31183958
000300 3b 40 99 be 0f cd dd 3d 16 b8 8b bc ab 9b 23 3e
       -0.29931816 0.108301274 -0.017055552 0.15977351
000310 9c 6d de 3b 8c 21 27 3d 55 5a d1 3f 72 c3 94 3e
       0.006787969 0.040803477 1.6355692 0.29055363
000320 15 45 c3 bd a8 3f a5 bd 61 73 9e bd 1b 96 81 3e
       -0.09534661 -0.08068782 -0.077368505 0.25309834
000330 ac cd 25 3c c1 fc 56 3b 31 53 00 3e 6a cd 45 3e
       0.010119837 0.0032804462 0.12531735 0.1931664
000340 07 41 b4 3e 35 4e 4e 3d 78 d3 89 bd 32 14 83 bd
       0.35205862 0.050367553 -0.067297876 -0.06400336
000350 23 ff a2 be 67 3b 0b 3d eb 9a 44 3f ac 1c b8 be
       -0.3183528 0.033992197 0.76798886 -0.35959375
000360 45 d8 91 be 45 ae d0 3c 2c 8e d9 3c 54 5d 33 3e
       -0.28485313 0.025473723 0.02655705 0.1751607
000370 d2 41 c6 3e ee 96 4d 3e 5d 2a 0b be 30 49 11 3e
       0.38722092 0.20077106 -0.13590379 0.14188075
000380 a9 2f de bc 28 95 98 bd 74 27 e1 be 0a 09 f3 be
       -0.027122336 -0.07450324 -0.43975413 -0.47467834
000390 ec 38 9e 3e c1 6b 22 be 57 da f6 b9 34 86 fd bd
       0.30902803 -0.15861417 -0.00047083452 -0.12379113
0003a0 a7 da 90 be e3 24 9b be 75 de 5f 3d 91 fa f3 3d
       -0.28291818 -0.3030158 0.05465551 0.11913026
0003b0 11 20 93 3e 35 5c a4 bc d0 2f 8f bd 68 97 91 be
       0.28735402 -0.020063499 -0.069915414 -0.28435826
0003c0 bd c8 cf 3e 40 2b 97 3f 8f 95 11 bb ba a1 43 3c
       0.4058284 1.1810074 -0.0022214388 0.011940414
0003d0 48 c2 01 be 02 8c 7c 3e 3c 06 90 be b7 63 54 be
       -0.12671769 0.24662784 -0.28129756 -0.20741163
0003e0 54 f5 a6 3e 94 cf a8 3e bd 2a ec be 17 b9 d6 bd
       0.32609046 0.3297087 -0.46126357 -0.10484522
0003f0 39 6f 9c be 7e 60 32 be 50 1c 5c 3e 8c 92 90 bc
       -0.30553606 -0.17419621 0.21495175 -0.017648004

dense2.bias f4 [128]
000000 55 1b 46 be 1e 07 1f be 5f a0 0c be 0d 72 ed bd
       -0.19346364 -0.15530059 -0.13733052 -0.11594019
000010 a0 70 2f be d0 f8 8d bd f7 9f f7 bd 73 d3 89 bd
       -0.17132807 -0.06932223 -0.12091058 -0.06729784
000020 e2 d2 e0 bd 82 cf 5e be a2 f3 5e bd e8 04 19 be
       -0.10977723 -0.21758845 -0.054431565 -0.14943278
000030 ba 61 33 be 44 b3 cc bd 6c 59 06 be 42 d1 14 be
       -0.17517748 -0.0999513 -0.13120049 -0.1453295
000040 86 51 a9 be d7 14 15 be 7e b7 86 be 3e 21 52 bd
       -0.3307001 -0.14558731 -0.26311868 -0.051301233
000050 30 34 02 be 15 65 58 be d9 aa c8 bd 18 19 0c be
       -0.1271522 -0.2113231 -0.097982116 -0.13681448
000060 1a 35 60 be 2d 6b 08 be c4 93 47 be f8 e9 5b bd
       -0.21895257 -0.13322134 -0.19489962 -0.053689927
000070 d6 8a 31 be 86 58 1a be fc 44 1f be bd 09 fd bd
       -0.17338118 -0.15072832 -0.15553659 -0.12355373
000080 ec 1d ad bd 90 98 49 be ca 4e f5 bd 23 2f f8 bd
       -0.08452973 -0.19687104 -0.119779184 -0.121183656
000090 ec b9 e3 bd c5 06 3c be 37 e5 40 be a1 8d a0 be
       -0.11119446 -0.18361957 -0.18837439 -0.31358054
0000a0 a0 16 ed bd 32 ce d6 bd f5 d7 33 be 67 e0 a9 bd
       -0.11576581 -0.104885474 -0.1756285 -0.082947545
0000b0 b3 3e 59 be 4d ae 92 bd 23 99 0d be 9e af 0c be
       -0.21215324 -0.071621515 -0.13827948 -0.13738868
0000c0 c0 74 f4 bd c4 08 42 be 30 24 47 be cb 55 2a be
       -0.11936331 -0.18948656 -0.19447398 -0.1663429
0000d0 64 65 04 be 9e c4 b8 bd 60 b5 8f be 48 8e 11 be
       -0.12929302 -0.09021877 -0.28068066 -0.14214432
0000e0 97 1a 46 be 8a 4d 1f be ce fd c0 bd fc 68 b4 bd
       -0.1934608 -0.15556923 -0.094234094 -0.08809087
0000f0 ed 8c c0 bd 6b 19 82 be 0f dd 24 be 5b b1 37 bd
       -0.094018795 -0.25410017 -0.16099952 -0.044846874
000100 a7 2b 07 be cd e0 17 be ee e6 d9 bd b2 7a f2 bd
       -0.13200246 -0.14831848 -0.106397495 -0.118398085
000110 a5 44 d8 bd fa 7f 16 be ef ec b1 bd 07 7c 0e be
       -0.10559968 -0.14697257 -0.086877696 -0.139145
000120 46 3a 0f be 09 99 f7 bc 8f fb 2c be f9 6f 8b be
       -0.13987073 -0.03022434 -0.16892837 -0.27233866
000130 b4 eb 4a be e6 50 25 be f3 a0 f4 bd 7b 05 89 bd
       -0.19816476 -0.16144142 -0.11944761 -0.066904984
000140 da 0c f7 bd df 52 21 be 14 ee 31 be 57 00 42 be
       -0.12062998 -0.15754269 -0.17375976 -0.18945442
000150 ee b4 26 be 6f 12 6d bd fc 4b 1e be ed 7b 44 be
       -0.16279957 -0.057878908 -0.15458673 -0.19187899
000160 d3 82 51 be 30 e4 ab bd a8 94 70 bd 7a e2 7d bd
       -0.20460062 -0.08393133 -0.05873552 -0.061983563
000170 b9 fd 6f be 2f 17 60 be da 45 0a be b3 dd 1d be
       -0.23436631 -0.21883844 -0.13503209 -0.15416603
000180 e3 07 e5 bd 63 26 e1 bd ed 4d 12 be cd 40 2d 3c
       -0.11183145 -0.1099365 -0.14287539 0.010574532
000190 2f b9 d5 bd 36 01 87 3d 6c 5f 50 bd 0a 18 eb bd
       -0.104357116 0.06592028 -0.05087225 -0.114791945
0001a0 e2 3e 2c be f1 dc 71 be a7 8f 6a be 5e f2 73 be
       -0.16820863 -0.23619439 -0.22906362 -0.23822924
0001b0 fe d0 99 be c6 69 c5 bd 78 c1 00 be d6 d2 03 be
       -0.3004226 -0.09639315 -0.12573802 -0.12873396
0001c0 f3 dd 5f be 4f c3 52 be d4 27 e4 bd 38 84 51 be
       -0.2186201 -0.20582317 -0.11140409 -0.20460594
0001d0 cf 44 62 be 73 78 3d be c2 4c 06 be 1a 76 9f bd
       -0.22096561 -0.18502979 -0.13115218 -0.07786198
0001e0 18 66 24 bd 2b 6e f9 bd a4 a5 46 be fa 2d bb bd
       -0.040136427 -0.12179216 -0.19399124 -0.09139629
0001f0 76 66 01 be a9 e1 08 bd f6 df e1 bd 38 cf de bd
       -0.12636742 -0.03341833 -0.11029045 -0.108793676

dense3.weight f4 [784, 128]
000000 21 af 21 3f 35 c3 54 3f 22 62 b7 3e 82 02 1d bf
       0.6315785 0.8311036 0.35817057 -0.6133195
000010 60 47 37 3e 2f 0c 49 bf 3c d9 a1 3d 5c e0 35 3e
       0.17898321 -0.78534216 0.07902762 0.17761368
000020 aa 4c 06 3e 08 51 00 3d 75 b0 74 be 37 c8 3c bf
       0.13115183 0.031327277 -0.23895438 -0.73743004
000030 1e c5 18 3f 39 39 53 3f 1e 88 c8 bd d2 40 37 3f
       0.59675777 0.8250919 -0.09791587 0.7158328
000040 f6 69 af bf 39 43 6c bd 02 6f 8b bf bf 50 6c 3e
       -1.3704212 -0.057681296 -1.0893252 0.23077677
000050 6e 10 de bf 03 9a 26 3e 5d 50 3d 3f a5 c4 cf bd
       -1.7348764 0.16269688 0.7395075 -0.10144929
000060 99 c4 b5 bf 43 00 a1 3e 19 43 14 3e 0d 20 ab be
       -1.4200622 0.31445512 0.1447872 -0.3342289
000070 9d 9a cc bf 74 a9 bf be 71 d2 48 bf 80 a0 4a bf
       -1.5984684 -0.3743397 -0.7844611 -0.79151154
000080 2b fb d4 be 11 7b 8d bf 0a ad 00 bf 02 c6 ab be
       -0.41597876 -1.1053182 -0.50264037 -0.33549505
000090 e5 fe 08 3f 85 f5 b2 bf f3 1e 25 bf 00 66 35 3f
       0.5351394 -1.3981177 -0.6450035 0.70858765
0000a0 9f 8f 48 bf 29 0c a1 bd c9 39 a4 3d 26 cf 78 bf
       -0.7834415 -0.078636475 0.08018834 -0.97191083
0000b0 43 0e e2 bd 09 ec 0b bf 2e c7 7d 3e f1 01 1c bf
       -0.110378765 -0.54657036 0.24783012 -0.6094046
0000c0 89 d7 20 bf 34 b6 1f be f0 f8 7f bf 18 7b 14 3f
       -0.6282888 -0.15596849 -0.99989223 0.58000326
0000d0 d0 fd d6 be 45 d1 32 3f b4 2c 7b bf e1 07 91 be
       -0.4199052 0.6985057 -0.98115087 -0.28326324
0000e0 17 02 67 3e 38 18 f3 3e 51 dd 39 be 48 f8 96 bf
       0.22559391 0.47479415 -0.18150832 -1.179452
0000f0 df e6 a2 be 10 7b 3e bf d8 4d 07 3f f4 de 40 bf
       -0.31816766 -0.7440653 0.52853155 -0.753402
000100 98 87 b3 bf e1 49 36 bf fd 71 6c bf 14 7d ae be
       -1.4025755 -0.7120648 -0.9236143 -0.34079802
000110 7a fa c4 bd 0a 9e 02 bf a9 10 60 3f 63 ad 24 be
       -0.09618087 -0.510224 0.8752542 -0.16081767
000120 58 52 c9 3e 0b 9c 6a 3e 84 b5 2f bf 73 bd a0 bf
       0.39320636 0.22911088 -0.68636346 -1.2557815
000130 6b 3c 23 3e 05 af 97 be 30 03 34 3f c2 99 d5 be
       0.15941016 -0.29625717 0.70317364 -0.4171887
000140 72 e6 12 be c9 d4 85 3f 8e 30 03 3f 24 f0 8c bf
       -0.1434572 1.0455562 0.51245964 -1.1010785
000150 37 c2 76 3e 0e d2 13 bf fb e9 9a bf 34 39 2a be
       0.24097525 -0.57742393 -1.2102655 -0.16623384
000160 24 c3 1f 3e b5 22 16 3e 71 b7 c5 3e ca 57 c3 bf
       0.15601784 0.14661677 0.38616517 -1.5261166
000170 31 c8 a8 bf 61 bf 69 3f 47 7b fc be ce da 9b 3d
       -1.3186094 0.91307646 -0.49312803 0.07610093
000180 86 af 2e bf 44 a0 83 bf aa e1 48 bf 16 a0 18 be
       -0.6823658 -1.0283284 -0.78469336 -0.14904818
000190 68 fa 69 be 63 95 cc be 34 69 a9 3e 64 25 bd be
       -0.22849429 -0.39957723 0.33088076 -0.3694259
0001a0 15 3d 24 bf 06 d5 7f be 14 a2 8f bf 1b ce 88 bf
       -0.64155704 -0.24983606 -1.1221337 -1.0687898
0001b0 b9 7f 07 bf 2d a8 92 bf 46 73 b4 3d 48 8f 2c 3d
       -0.52929264 -1.1457573 0.08811049 0.04212883
0001c0 a6 18 6e bf f1 4b c8 be 54 14 ea be 7c a3 d6 bf
       -0.9300636 -0.3912044 -0.45718634 -1.6768641
0001d0 59 e4 fc 3e e3 e5 a1 3e dc d8 bc bf 17 96 c5 3b
       0.49392965 0.31620702 -1.475368 0.006029855
0001e0 5d 2e 4d 3f d0 96 cb 3e f8 3f a8 bf 72 25 36 be
       0.8014887 0.39763498 -1.3144522 -0.17787722
0001f0 f4 71 70 3f 17 9f 1e bf 78 b9 c3 3e e7 5f b3 3e
       0.9392388 -0.619615 0.3822744 0.35034105
000200 49 6e a0 3e 0a e8 40 bf 1a 4e a6 3d 7e cc 50 bf
       0.3133414 -0.75354064 0.081203654 -0.8156203
000210 1a 04 d7 be d1 56 0d bf 81 44 5a 3e 71 17 38 be
       -0.41995317 -0.55210596 0.21315195 -0.17977692
000220 0a 96 c3 3d 20 7b d2 bc 3c e4 4d 3f e7 82 17 3f
       0.09550102 -0.025693476 0.80426383 0.59184116
000230 b0 f8 e4 be 0b b8 30 bf 19 85 3f 3b d9 d7 27 3d
       -0.44720984 -0.6903083 0.002922362 0.040977333
000240 5e ae 87 bf 6e 69 80 3d 3b a4 36 be bf d4 0f 3f
       -1.0600088 0.06270109 -0.17836086 0.56184
000250 23 9b e1 be 96 f0 0a 3e 0a 71 99 3f f0 16 0b 3e
       -0.44063672 0.13568339 1.1987622 0.13582969
000260 e0 73 11 bf 25 5f 87 be 4b 12 b2 3d 21 ba e6 be
       -0.56817436 -0.26439777 0.08694895 -0.4506388
000270 41 bf b9 bd 22 af b4 3e d6 ad d9 3d 37 26 f7 be
       -0.09069682 0.35289866 0.1062886 -0.48271343
000280 57 e6 75 bf 00 74 78 bf 36 50 d7 be 50 85 e9 3d
       -0.96054596 -0.97052 -0.42053384 0.114023805
000290 71 b7 14 bf 3e 2a 22 bf 83 25 9a be a9 a0 82 be
       -0.5809241 -0.63345706 -0.30106744 -0.255132
0002a0 5a c9 78 bf 3b 8c c3 be bb 76 61 be 58 da a2 be
       -0.9718224 -0.38192925 -0.22017948 -0.31807208
0002b0 08 7a 57 bd 6c fc e2 3d 7c 04 79 bf 07 c1 2a 3e
       -0.052606612 0.11083302 -0.9727247 0.16675197
0002c0 61 ae fb 3d c7 79 3b 3f 39 4d 6b bf 08 db 22 bf
       0.122891195 0.7323269 -0.9191471 -0.63615465
0002d0 98 84 bc 3d 5a c7 4a 3e a5 b2 4c bf 70 4e 4c 3e
       0.09204978 0.19802609 -0.7996009 0.19951797
0002e0 2c 12 4a 3e 7b bb 9c 3f e4 1c 2e 3f da b5 3f bf
       0.19733495 1.2244714 0.68012834 -0.7488686
0002f0 7d 48 46 3e ff d7 91 3d 93 38 11 be 44 f2 cf bf
       0.1936359 0.07121276 -0.14181738 -1.6245809
000300 79 d0 9a be cf 27 17 bf 00 3d 33 3e 73 12 60 3d
       -0.30237177 -0.5904512 0.17503738 0.054705095
000310 bf c6 99 be 98 74 28 3e f4 40 18 3f 45 d0 72 be
       -0.30034444 0.16450727 0.5947411 -0.23712261
000320 fe d0 c6 3e bf 74 0f bf 65 d8 45 bf 31 26 92 be
       0.38831323 -0.56037515 -0.77283317 -0.28544763
000330 b7 14 f8 3d db 4d 26 be e8 fb 6b be b9 18 d3 bc
       0.12113326 -0.16240637 -0.23045313 -0.025768625
000340 a5 a7 df 3e cc 7f 99 be cd a2 3e 3e 8a 20 62 bf
       0.4368259 -0.29980314 0.18616791 -0.883309
000350 e3 23 55 be 12 91 5f bf b8 54 c1 bb 62 73 07 3f
       -0.20814471 -0.87330735 -0.005899992 0.52910435
000360 40 ea 87 3e d0 3f 14 be 10 e4 97 bf be 15 c2 3e
       0.26545906 -0.14477468 -1.1866474 0.37907213
000370 15 1f 4a bf e9 c8 1e 3f 68 c4 f7 be 49 55 f0 3e
       -0.7895368 0.62025315 -0.48392034 0.46940067
000380 4c 7b 84 bf 9d 5a 9e bf 27 1b b4 3d d1 e2 8a 3d
       -1.0350127 -1.2371403 0.087942414 0.06781543
000390 3c c2 a0 be 1c 54 40 bf 59 2f 20 3f 8a dd 19 3f
       -0.3139819 -0.7512834 0.62572247 0.60103667
0003a0 d4 37 d8 be b8 43 68 be c1 64 44 3e c4 64 ee be
       -0.42230093 -0.22682083 0.1917906 -0.46561253
0003b0 1b da 16 bf d6 27 3e bf b8 8a 81 3f 9f cf 02 bf
       -0.5892655 -0.74279535 1.0120459 -0.51098055
0003c0 c8 d5 97 bf af d0 3d bd 7d d8 41 3f bd 9a 50 bf
       -1.1862116 -0.046341594 0.7572096 -0.8148611
0003d0 f2 1f 81 be 82 14 95 bf ae 67 a3 3e 06 99 30 3f
       -0.25219685 -1.1646883 0.3191504 0.68983495
0003e0 54 03 26 be 1c 22 20 bf 53 d9 aa bf 6c 10 2d bd
       -0.16212207 -0.62552047 -1.3347572 -0.04225199
0003f0 e7 f0 7e 3e f0 c7 9f 3e 33 dd fc bd af 6a 73 3f
       0.24896584 0.31207228 -0.12346878 0.9508466

dense3.bias f4 [784]
000000 1c ff 92 c0 c2 df af c0 32 b4 96 c0 c1 01 94 c0
       -4.5936413 -5.496064 -4.7094965 -4.625214
000010 9c e6 81 c0 e4 45 79 c0 f2 e0 80 c0 44 ad 49 c0
       -4.0594006 -3.8948908 -4.027459 -3.1512003
000020 5c 94 56 c0 55 72 50 c0 d6 c5 1c c0 11 fa ca bf
       -3.3528051 -3.2569783 -2.449575 -1.5857564
000030 33 d7 cc bf d5 04 cf bf 6b 3d d6 bf 36 11 d5 bf
       -1.6003174 -1.617335 -1.6737493 -1.6645877
000040 db 76 b6 bf 02 7c 07 c0 a2 14 34 c0 c7 dc 3e c0
       -1.4255022 -2.1169438 -2.8137593 -2.9822252
000050 38 4e 45 c0 e8 3e 69 c0 18 13 78 c0 94 65 82 c0
       -3.082899 -3.6444645 -3.8761654 -4.0748997
000060 92 5c 84 c0 e5 b2 97 c0 7b 18 9d c0 cd 6a a2 c0
       -4.1363 -4.7405877 -4.9092383 -5.075537
000070 f6 92 b1 c0 53 6b 98 c0 46 32 6e c0 d4 27 90 c0
       -5.5491896 -4.763101 -3.7218184 -4.504862
000080 75 c9 88 c0 ca 45 60 c0 22 f1 33 c0 64 95 27 c0
       -4.274592 -3.5042596 -2.8115926 -2.618493
000090 c5 1a 0e c0 3c 6f c9 bf 55 84 8b bf b3 5f 39 bf
       -2.220384 -1.5737071 -1.089976 -0.7241165
0000a0 27 28 02 bf b0 66 2a bf f8 c4 1b bf 1c 31 2b bf
       -0.5084252 -0.6656294 -0.60847425 -0.6687181
0000b0 99 42 1d bf 4b 26 da be a3 77 a2 bf 82 01 c5 bf
       -0.61429745 -0.4260734 -1.269276 -1.5391085
0000c0 93 03 13 c0 8a f8 41 c0 d6 03 5b c0 ed b5 58 c0
       -2.2970932 -3.0307946 -3.4221091 -3.3861039
0000d0 98 f8 59 c0 26 82 7d c0 35 ce 8c c0 e6 6d a3 c0
       -3.405798 -3.9610686 -4.4001718 -5.1071653
0000e0 96 03 aa c0 47 2f 9c c0 f9 e3 97 c0 fa da 88 c0
       -5.3129377 -4.880771 -4.7465787 -4.2767305
0000f0 da 64 60 c0 d3 6d 3c c0 64 55 25 c0 30 9c fb bf
       -3.5061555 -2.9442031 -2.5833368 -1.965704
000100 04 20 a0 bf 17 5e 8b bf ba 49 18 bf 5b 62 fe be
       -1.250977 -1.0888089 -0.594875 -0.49684414
000110 c1 1f 8a be e1 bb 0a bf de d0 49 bf c6 2c 0d bf
       -0.2697735 -0.5419293 -0.7883433 -0.55146444
000120 9d 59 06 bf e1 e1 11 bf ce c6 26 bf d9 55 96 bf
       -0.5248049 -0.5698529 -0.651471 -1.1744949
000130 2b 0f f0 bf 16 0f 01 c0 f0 ff 1a c0 03 ed 37 c0
       -1.8754629 -2.0165458 -2.4218712 -2.873841
000140 3f 7d 5d c0 03 81 7a c0 08 6a 92 c0 ae 6c 99 c0
       -3.4607694 -3.9141243 -4.5754433 -4.7945166
000150 fa 7e 85 c0 cd a0 81 c0 4b f7 87 c0 bd c6 79 c0
       -4.17175 -4.050879 -4.248937 -3.902755
000160 6b 7a 5a c0 92 6f 25 c0 43 45 d8 bf e7 1a 91 bf
       -3.4137218 -2.5849347 -1.6896137 -1.1336335
000170 9b 68 97 bf 39 38 43 bf ec 78 e7 be 60 ba 60 be
       -1.1828798 -0.76257664 -0.45209444 -0.21946096
000180 54 fb bc be 8b 3f 0e bf 53 cd e4 be 44 61 de be
       -0.36910498 -0.5556571 -0.446879 -0.43433583
000190 eb 5b 2c be b5 f7 ac be cd c7 da be d8 ab 56 bf
       -0.16831939 -0.33782735 -0.4273056 -0.8385596
0001a0 3d 3a 8d bf 97 05 d5 bf 32 c3 f1 bf b7 a7 19 c0
       -1.1033398 -1.6642331 -1.8887694 -2.4008615
0001b0 dc 3e 6c c0 16 12 73 c0 f2 1e 83 c0 15 a6 71 c0
       -3.6913366 -3.7979789 -4.0975275 -3.7757618
0001c0 97 80 92 c0 3c 3c 88 c0 3b 35 68 c0 63 18 68 c0
       -4.578197 -4.257353 -3.628249 -3.6264884
0001d0 b2 4c 37 c0 ee c1 18 c0 ca 79 c2 bf 2b 95 b4 bf
       -2.864056 -2.3868365 -1.5193417 -1.4108022
0001e0 11 73 51 bf fb f0 0a bf 89 a8 19 bf 6d 6b ee be
       -0.818162 -0.54273957 -0.6002279 -0.46566334
0001f0 b7 6f 93 be 82 35 ac be ae c3 cb be 49 bf ec be
       -0.2879617 -0.33634573 -0.3979773 -0.4623969
000200 90 33 c2 be 59 51 ab be e7 7c 89 be b7 ea 47 bf
       -0.37929964 -0.334605 -0.26853105 -0.7809252
000210 21 03 36 bf 1b 89 8f bf be 3c c8 bf 36 96 01 c0
       -0.71098524 -1.1213716 -1.5643537 -2.0247931
000220 c3 3b 3b c0 1b f1 51 c0 13 0b 81 c0 fd dd 83 c0
       -2.9255226 -3.280341 -4.032602 -4.120848
000230 cc 57 95 c0 1f 05 77 c0 7e 2c 84 c0 2a b3 54 c0
       -4.6669674 -3.8596876 -4.130431 -3.3234353
000240 85 5a 2f c0 e0 85 ef bf 97 de be bf 82 f0 6e bf
       -2.7398999 -1.871273 -1.4911679 -0.93335736
000250 9a 88 4a bf b9 70 d8 be 2f eb d5 be de 37 cd be
       -0.7911469 -0.422735 -0.41780993 -0.40081686
000260 96 f9 a4 be dc e8 da bd 27 5f 9b be ad 83 a0 be
       -0.3222167 -0.10688946 -0.30346033 -0.3135046
000270 3f 9e d2 be 63 8b 80 be e7 f6 6b be de 5a ff be
       -0.41136357 -0.25106344 -0.23043405 -0.49874014
000280 86 62 2c bf 84 69 68 bf 47 9c b0 bf 5d b7 e2 bf
       -0.67337835 -0.90786004 -1.3797692 -1.7712208
000290 e4 d6 31 c0 90 95 47 c0 45 32 5a c0 5b 08 80 c0
       -2.778741 -3.1185036 -3.4093182 -4.00102
0002a0 fe c0 91 c0 e3 6c 6f c0 29 1d 55 c0 c7 4b 3c c0
       -4.5548086 -3.741021 -3.3299048 -2.942125
0002b0 24 ed 1b c0 a9 77 be bf fb 48 99 bf e9 38 2e bf
       -2.436349 -1.4880267 -1.1975397 -0.6805559
0002c0 1e fd 27 bf 0f 0a 17 bf 1f 3d 7a be 88 d2 6e be
       -0.656206 -0.58999723 -0.24437378 -0.23322499
0002d0 44 7f 96 be b3 ab c6 be 4d 03 da be 57 1b d4 be
       -0.2939397 -0.3880287 -0.42580643 -0.4142711
0002e0 7e eb 91 be c9 df 87 be 0d 8a 71 be ad 99 9b be
       -0.2849998 -0.26537922 -0.23587818 -0.30390683
0002f0 3d b8 1d bf c9 56 68 bf d5 cc 8c bf ad 4c b5 bf
       -0.6160925 -0.90757424 -1.100001 -1.4164025
000300 19 1e 08 c0 f3 63 3a c0 cb d3 62 c0 d0 6d 80 c0
       -2.126837 -2.9123504 -3.5441768 -4.013405
000310 b7 da 6c c0 f4 8e 59 c0 d0 91 53 c0 5c 5c 45 c0
       -3.7008493 -3.3993502 -3.3057747 -3.0837622
000320 dd c0 23 c0 45 42 e7 bf 00 9a a6 bf ed 5f 39 bf
       -2.5586464 -1.8067099 -1.3015747 -0.72411996
000330 b6 ed 47 bf ce c5 d3 be 89 aa d3 be 46 10 74 be
       -0.78097093 -0.4136185 -0.41341045 -0.23834333
000340 5f ca 99 be 9a bc b7 be e8 46 db be a4 b5 9f be
       -0.3003721 -0.3588608 -0.42827535 -0.31193268
000350 70 63 6a be 9e dd ac bd 90 c5 a6 bd 0d 41 9f be
       -0.22889495 -0.084407076 -0.08143151 -0.31104317
000360 7f ff f4 be 40 5a 3a bf 06 56 78 bf a4 f1 b9 bf
       -0.47851178 -0.7279396 -0.9700626 -1.4526868
000370 70 91 f3 bf e8 94 2d c0 da 45 47 c0 d6 da 71 c0
       -1.9028759 -2.7122135 -3.1136384 -3.7789817
000380 b9 85 7d c0 ab 18 7a c0 a2 78 51 c0 9f ae 36 c0
       -3.9612868 -3.9077556 -3.2729878 -2.854408
000390 18 8f e3 bf 10 06 b7 bf 28 4d 80 bf 62 b2 0a bf
       -1.7778044 -1.4298725 -1.0023546 -0.5417844
0003a0 1e 37 dd be 2a 1c b6 be e4 19 98 be ab 85 90 be
       -0.43206114 -0.35568362 -0.29707253 -0.2822698
0003b0 7b 71 9f be 46 55 b2 be 4f db 8a be cd db 00 be
       -0.31141266 -0.34830683 -0.27120444 -0.12583847
0003c0 e5 37 63 be b1 f3 4a bd 80 1d be bd 13 ab b3 bd
       -0.22189291 -0.04954881 -0.092829704 -0.08772864
0003d0 d3 0b b5 be 57 87 0c bf 22 8a 42 bf 80 f3 9c bf
       -0.35360584 -0.5489401 -0.75992024 -1.226181
0003e0 84 29 d5 bf 5b 86 e3 bf 71 35 43 c0 fb 96 66 c0
       -1.6653295 -1.7775377 -3.0501368 -3.602965
0003f0 2e 59 77 c0 df ab 6f c0 23 b3 4f c0 30 4c 12 c0
       -3.864818 -3.7448652 -3.2453086 -2.2859
